trained_modelv1_66_correct.pth (torch, 111362 bytes, 10 tensors)

fc1.weight f4 [128, 95]
0.0068764677 0.10750116 -0.17406504 -0.1709563 -0.019902375 -0.07301317 0.09477832 -0.1013782
0.1004377 0.20639865 -0.056167465 -0.06370473 0.03528873 -0.05207024 0.073365256 0.08906845
-0.020302584 0.05508453 -0.025385248 0.20987023 0.024024965 0.041240867 0.07295061 -0.15603
0.08224798 -0.01764979 0.15067737 -0.076663494 -0.18817437 -0.00644511 0.092979915 0.067214936
0.04810484 -0.10346845 -0.23660573 -0.089539155 -0.024405057 -0.07969542 0.11978201 0.18449795
-0.01297868 0.1685253 -0.07872861 -0.1948144 -0.12711503 0.00018675253 -0.07156861 -0.18764134
-0.024798563 -0.019885499 -0.04674335 -0.011804419 0.15336238 -0.2043292 0.13733374 -0.009269836
-0.052428707 -0.16921307 -0.13826445 0.09355102 -0.04840033 -0.01507465 0.059160676 0.0437187
0.025790995 -0.057595607 0.1548246 -0.08687549 -0.08414494 0.016046109 0.005014369 -0.13200425
-0.17472662 -0.0148154 -0.04590479 -0.22734593 -0.07387637 -0.15474872 0.017220197 -0.108758524
-0.0648673 -0.052569915 0.14605822 0.18381715 -0.046405215 0.013942107 -0.1643961 0.13009888
0.08539119 -0.03787987 -0.010108239 -0.07584041 -0.10691291 -0.16420563 -0.05044283 -0.12860256
-0.042919338 0.0008904735 -0.1485561 0.1482186 -0.16243312 0.092001334 0.023772167 0.038596254
0.002463089 -0.08170585 -0.04997122 0.14855975 0.03310311 0.022781529 0.02730051 0.071604654
0.0046473756 0.101983726 -0.05626931 -0.08594461 -0.10687275 -0.07731276 -0.058984756 0.06764168
0.04257958 0.13079002 -0.0807561 0.14686383 0.07962255 -0.028799487 0.123309836 0.11076369
-0.06919954 -0.08471168 0.12902518 0.103592955 0.06355409 0.20437695 -0.048558854 -0.05088029
0.03636495 -0.016099826 -0.07784329 -0.051433332 -0.06431803 0.13267288 -0.06290559 -0.065482736
0.016932374 0.15926704 -0.13991325 -0.106586374 -0.20614435 0.17297933 -0.15206128 -0.13216211
0.019380357 -0.22866629 -0.13943003 0.10160048 -0.17013486 -0.0072929533 0.11842429 0.0224602
0.14378257 -0.117502235 -0.03788743 -0.11148549 -0.2208199 -0.011690375 -0.035818785 -0.12334369
0.15144639 -0.20395707 0.035146058 0.17559287 -0.13499948 -0.16346696 -0.1000734 0.1511566
0.03420887 0.011353614 -0.020146374 -0.007868254 0.10152678 -0.017370833 0.12233987 -0.21305457
0.07827888 -0.16329579 -0.10485398 0.04207491 0.13852525 0.12966725 -0.0064418674 -0.092141606
0.13189214 0.181562 -0.0026716294 -0.12910251 0.13662961 -0.0365641 0.01049195 -0.0077979784
0.06498404 0.013795722 0.04704641 0.040375855 -0.16939026 -0.13362594 -0.037119847 -0.36335617
-0.085633814 -0.13663848 -0.12901115 0.052204818 -0.009750748 -0.15524158 -0.043037042 -0.107973486
-0.054087326 -0.20452787 0.18838409 0.0027277146 0.16987887 -0.095117226 -0.08278205 0.10877409
0.09908959 0.027172953 0.102201864 0.018218052 0.095017776 -0.15380898 0.050806176 0.12855838
0.050861176 -0.04295201 -0.0918693 0.13918675 -0.066856086 -0.009775486 0.043025933 0.15482408
-0.07017702 -0.0027334378 -0.25712794 0.07356252 -0.041330002 0.05664032 -0.24156235 0.18504964
0.17855273 -0.10915833 -0.20132938 0.14126596 -0.15040253 -0.04918878 0.010351846 -0.19638686
00000000: fe53 e13b 9129 dc3d 1b3e 32be 2b0f 2fbe
00000010: 4e0a a3bc ee87 95bd 231b c23d 609f cfbd
00000020: 48b2 cd3d 2b5a 533e db0f 66bd a077 82bd
00000030: ea8a 103d 9b47 55bd 8640 963d 8569 b63d
00000040: 9b51 a6bc 51a0 613d b9f4 cfbc 39e8 563e
00000050: 01d0 c43c 2fec 283d 2167 953d 54c6 1fbe
00000060: a171 a83d 4b96 90bc 2b4b 1a3e c001 9dbd
00000070: c8b0 40be 8031 d3bb 416c be3d fca7 893d
00000080: 9509 453d 44e7 d3bd c648 72be 4e60 b7bd
00000090: 1ded c7bc 5a37 a3bd 4550 f53d 08ed 3c3e
000000a0: 88a4 54bc e591 2c3e 773c a1bd 6d7d 47be
000000b0: 712a 02be 00d3 4339 9092 92bd 0d25 40be
000000c0: 5b26 cbbc eae6 a2bc f475 3fbd 5267 41bc
000000d0: 070b 1d3e ac3b 51be 37a1 0c3e 83e0 17bc
000000e0: 7cbf 56bd 3146 2dbe 3295 0dbe ad97 bf3d
000000f0: 6d3f 46bd aafb 76bc 7752 723d 6112 333d
00000100: a347 d33c 5fe9 6bbd 578a 1e3e c7eb b1bd
00000110: 2f54 acbd 2173 833c 934f a43b 1f2c 07be
00000120: 89eb 32be 4bbc 72bc a906 3cbd 5fcd 68be
00000130: 7f4c 97bd 7376 1ebe 5f11 8d3c cabc debd
00000140: 26d9 84bd 8d53 57bd 4990 153e 903a 3c3e
00000150: 6513 3ebd 6f6d 643c 7457 28be a438 053e
00000160: 94e1 ae3d ec27 1bbd 079d 25bc 3852 9bbd
00000170: 28f5 dabd 8525 28be 249d 4ebd 64b0 03be
00000180: 30cc 2fbd aa6e 693a 171f 18be 9ec6 173e
00000190: de54 26be 326b bc3d d9bd c23c 1b17 1e3d
000001a0: c76b 213b 6655 a7bd 9fae 4cbd 0c20 183e
000001b0: 2097 073d 54a0 ba3c 52a5 df3c 76a5 923d
000001c0: 0349 983b d8dc d03d a67a 66bd ba03 b0bd
000001d0: 1ae0 dabd 2756 9ebd 009a 71bd b987 8a3d
000001e0: ed67 2e3d d2ed 053e 7463 a5bd 7963 163e
000001f0: 2611 a33d e7ec ebbc de89 fc3d 13d8 e23d
00000200: 7db8 8dbd 517d adbd 2d1f 043e 8b28 d43d
00000210: a628 823d 3148 513e a6e5 46bd da67 50bd
00000220: 6af3 143d c8e3 83bc 4e6c 9fbd c2ab 52bd
00000230: 2cb9 83bd 66db 073e a5d4 80bd d01b 86bd
00000240: c3b5 8a3c e616 233e 6b45 0fbe f549 dabd
00000250: 8117 53be 7e21 313e f4b5 1bbe 8155 07be
00000260: 8ec3 9e3c 7f27 6abe bfc6 0ebe ea13 d03d
00000270: d537 2ebe baf9 eebb 6f88 f23d 74fe b73c
00000280: bd3b 133e 03a5 f0bd da2f 1bbd 8152 e4bd
00000290: 9d1e 62be fd88 3fbc b8b6 12bd 9e9b fcbd
000002a0: c314 1b3e 1fda 50be 50f5 0f3d 9ece 333e
000002b0: 4e3d 0abe e263 27be 48f3 ccbd ccc8 1a3e
000002c0: 9a1e 0c3d 8204 3a3c 020a a5bc d9e9 00bc
000002d0: 46ed cf3d 474d 8ebc 538d fa3d fa2a 5abe
000002e0: ad50 a03d 0337 27be afbd d6bd be56 2c3d
000002f0: 90d9 0d3e 7ec7 043e 4d16 d3bb bdb4 bcbd
00000300: bc0e 073e 64eb 393e 8116 2fbb 7333 04be
00000310: a2e8 0b3e 3dc4 15bd 6ee6 2b3c 2f86 ffbb
00000320: 5a16 853d 7407 623c bdb3 403d 2761 253d
00000330: a474 2dbe 3dd5 08be fb0a 18bd d209 babe
00000340: c860 afbd f5ea 0bbe 801b 04be b8d4 553d
00000350: 9ac1 1fbc a6f7 1ebe 9c47 30bd 3421 ddbd
00000360: ac8a 5dbd c16f 51be c2e7 403e 75c3 323b
00000370: baf4 2d3e d2cc c2bd a389 a9bd f3c4 de3d
00000380: 7cef ca3d d099 de3c 364f d13d 063e 953c
00000390: ae98 c23d 1a80 1dbe 231a 503d cfa4 033e
000003a0: cf53 503d 72ee 2fbd f925 bcbd f986 0e3e
000003b0: d8eb 88bd 5c29 20bc f63b 303d 348a 1e3e
000003c0: f8b8 8fbd 7a23 33bb 46a6 83be f2a7 963d
000003d0: a649 29bd aeff 673d 1f5c 77be a77d 3d3e
000003e0: 87d6 363e 678e dfbd 4a29 4ebe 06a8 103e
000003f0: 1f03 1abe 2d7a 49bd ca9a 293c a319 49be

fc1.bias f4 [128]
0.057322476 0.04534417 0.02749464 -0.0025415248 0.02153599 -0.016455615 -0.0249211 0.008800635
0.0071782814 0.04412277 -0.021945313 -0.009119758 0.022339512 -0.0046545337 0.005408547 -0.0043528825
0.01105086 0.005191171 0.017997267 0.009483597 -0.024600198 0.03999555 0.07041358 0.013416948
0.008583619 0.040810596 0.050230235 0.012783792 0.010620547 -0.0028602926 0.032968603 -0.0024445008
0.065060005 0.037810553 0.009424126 0.0060627926 0.0010630657 0.016079037 -0.0015017069 0.016436446
-0.031680405 -0.002439375 0.01894923 0.018692771 -0.012606863 0.014686957 0.014220367 0.013212597
0.001303296 0.031163821 -0.01275103 0.040763915 0.015011646 0.060489893 0.009477416 0.04688132
-0.00844595 -0.000785683 0.022791263 0.005162488 -0.02495626 -0.008931832 0.01185172 0.0011346784
-0.0052153612 0.014428231 0.01268903 0.019766001 -0.029150344 0.018732112 -0.0032830194 0.034339435
-0.019333018 0.024853744 0.021633174 0.009278553 0.016262418 0.044978697 -0.012940779 0.018011443
0.025841586 0.001511099 -0.028688723 0.000493466 -0.011127068 0.032984223 0.010932604 0.014499427
0.03175691 0.02714796 0.0014045186 0.027329845 0.00039710704 0.0067026718 0.013337787 -0.013875823
0.053598654 0.0025327462 -0.014939135 -0.032011602 0.017400345 0.029143801 -0.01151821 0.0018431211
-0.0016135359 -0.017710872 0.0053370036 0.009734098 0.046651386 0.029559726 0.049639035 0.04363118
0.008931065 0.016680308 0.019795543 -0.0011270721 0.02240367 0.0077195186 0.013313023 -0.0010511273
0.020378571 -0.0097906105 0.03854681 0.0077409497 -0.017492594 0.0052877525 0.032283533 -0.009483473
00000000: f9ca 6a3d cfba 393d 703c e13c b68f 26bb
00000010: 3f6c b03c edcd 86bc 5627 ccbc 8a30 103c
00000020: ca37 eb3b 14ba 343d a8c6 b3bc 0a6b 15bc
00000030: 5a01 b73c 0f85 98bb 2e3a b13b a0a2 8ebb
00000040: ab0e 353c b31a aa3b 016f 933c 1761 1b3c
00000050: 5b86 c9bc 60d2 233d ff34 903d c2d2 5b3c
00000060: 4fa2 0c3c 0329 273d 38be 4d3d 1c73 513c
00000070: ce01 2e3c bf73 3bbb 160a 073d eb33 20bb
00000080: 2e3e 853d 3ddf 1a3d a667 1a3c 64aa c63b
00000090: 9156 8b3a 2fb8 833c ecd4 c4ba baa5 863c
000000a0: 50c3 01bd ecdd 1fbb 6a3b 9b3c 9521 993c
000000b0: 048d 4ebc 90a1 703c 8bfc 683c a679 583c
000000c0: 5bd3 aa3a 454b ff3c b2e9 50bc 10f8 263d
000000d0: 68f3 753c 40c4 773d 2a47 1b3c a106 403d
000000e0: e260 0abc 4bf6 4dba beb4 ba3c 172a a93b
000000f0: 1271 ccbc d256 12bc b72d 423c 7db9 943a
00000100: 9fe5 aabb 6364 6c3c a6e5 4f3c 4fec a13c
00000110: b4cc eebc 1674 993c ed27 57bb 82a7 0c3d
00000120: 4760 9ebc 149a cb3c 0e38 b13c 1205 183c
00000130: c338 853c 953b 383d 9005 54bc bc8c 933c
00000140: bcb1 d33c 1210 c63a 9d04 ebbc f15b 013a
00000150: 4e4e 36bc 771a 073d aa1e 333c 018f 6d3c
00000160: 8913 023d 6665 de3c d317 b83a d7e2 df3c
00000170: ce32 d039 16a2 db3b bc86 5a3c 6b57 63bc
00000180: 438a 5b3d 6efc 253b 46c3 74bc 991e 03bd
00000190: 2b8b 8e3c fbbe ee3c e0b6 3cbc e294 f13a
000001a0: 487d d3ba 6416 91bc 08e2 ae3b c47b 1f3c
000001b0: 8615 3f3d 3d27 f23c 4d52 4b3d 9cb6 323d
000001c0: 9a53 123c 24a5 883c 432a a23c 44ba 93ba
000001d0: e787 b73c 04f4 fc3b de1e 5a3c fbc5 89ba
000001e0: f6f0 a63c cc68 20bc 43e3 1d3d cba7 fd3b
000001f0: a14c 8fbc e244 ad3b bd3b 043d 9260 1bbc

fc2.weight f4 [64, 128]
0.18268237 0.04840306 -0.15255934 0.20630679 0.12563266 -0.12169846 -0.19564614 0.03121667
-0.06301332 0.22253051 -0.1345483 -0.16428503 0.043984465 -0.02070108 -0.021770468 -0.0659073
0.10382775 -0.11402708 0.19430791 -0.103675656 0.035996612 0.062163536 0.18884072 -0.159659
-0.16104242 -0.05368711 -0.026300445 0.09531164 0.111746944 -0.14263482 0.14871912 -0.05947503
-0.20185983 0.16364191 -0.18238129 -0.06724154 0.06100486 -0.031440105 -0.19463041 0.020614034
-0.08556748 0.07175028 0.10914607 -0.015134937 -0.06809323 -0.054607946 -0.18564828 -0.013075667
0.009100245 0.07459268 0.16553974 -0.11303286 0.05684029 -0.13416585 0.12435811 0.14710912
0.08985203 -0.18315072 0.07718619 -0.10636524 0.030602189 -0.05092693 -0.19370562 -0.14616649
-0.008303289 -0.018859405 -0.14134091 0.14163315 -0.1442077 -0.16489187 -0.07326117 0.04592432
-0.019755501 0.036034 0.029707178 0.19262664 -0.1092737 -0.13163608 -0.0940026 -0.044745635
-0.17364237 0.0257658 -0.09788428 0.07690743 -0.018160488 -0.013734354 -0.088991836 -0.17865153
-0.009220543 -0.14975616 -0.018342268 -0.0061434517 0.03193225 0.16835892 -0.070151255 0.07302373
0.07182109 0.05253919 -0.100426935 0.06782242 -0.038474742 -0.06134197 -0.03283367 0.122200884
-0.15578261 -0.060079206 -0.046037875 -0.12446409 -0.028008452 0.01818482 0.042724952 0.065228686
-0.20148735 -0.07094747 -0.024417518 -0.11123011 0.061538413 -0.18936262 0.025869017 0.14045866
-0.1084548 0.11412952 0.07059683 0.156466 -0.18761733 0.077723145 -0.069247276 0.0017002975
0.08753018 0.20373996 0.0013546022 0.056646828 0.1526349 0.06878626 -0.18057254 -0.17098665
0.12320301 0.080515966 -0.061900225 0.15276703 -0.10212192 0.015343059 -0.08598501 0.18450096
0.019950647 0.038373873 -0.13065524 -0.045419052 0.10218633 0.05714648 0.06392351 -0.09533514
0.007997004 -0.01984419 0.015580386 -0.16146089 -0.15425369 -0.024271308 -0.060121622 0.075607434
-0.049943767 -0.019528836 0.048493132 0.00048547 0.06069363 -0.13754186 -0.10980367 -0.05743583
0.033831406 -0.14923492 -0.019140912 0.17200834 0.080800846 0.12614034 0.18962248 -0.14186947
-0.15059985 -0.11739169 0.08964341 -0.016211953 -0.08368021 -0.16044874 0.2065821 -0.023733022
-0.19131596 0.10440385 0.12394881 -0.1387508 0.101728424 0.11799605 0.13084805 -0.058897555
0.006853023 -0.05280392 -0.13058187 -0.023342427 0.032510206 0.11615408 -0.10167497 0.007964123
-0.14173964 0.09489801 -0.17002642 0.19602208 0.1718337 0.26813734 0.023057168 0.15853034
-0.20039164 0.17666855 -0.052824058 0.12961191 0.024138931 -0.044494946 0.18986748 0.08359051
0.031355258 0.06647528 0.09835392 0.17744966 -0.0025812085 0.119047254 0.14661315 0.076377474
-0.20147824 -0.056249157 -0.08239352 0.11077102 -0.1680965 0.12211802 0.06188541 -0.054778785
-0.07750094 0.049182363 -0.15755264 0.09720829 -0.114323825 -0.077865936 0.080857106 0.11468829
0.19168703 -0.27019274 0.1323458 -0.097191975 0.025437752 -0.10108798 -0.028501285 -0.19388448
0.061147384 0.15051152 0.00068435393 -0.041230325 0.052685305 -0.09992813 -0.03812917 -0.1580814
00000000: 1611 3b3e 4942 463d 8438 1cbe 1642 533e
00000010: d9a5 003e 0b3d f9bd 7657 48be 1aba ff3c
00000020: 210d 81bd 0adf 633e 08c7 09be 563a 28be
00000030: 0e29 343d 5095 a9bc fb57 b2bc 68fa 86bd
00000040: a5a3 d43d 0887 e9bd a7f8 463e e753 d4bd
00000050: 2f71 133d 319f 7e3d 765f 413e a67d 23be
00000060: 4ee8 24be 04e7 5bbd 0874 d7bc c032 c33d
00000070: 95db e43d dd0e 12be d349 183e 179c 73bd
00000080: 58b4 4ebe bf91 273e 29c2 3abe efb5 89bd
00000090: 3be0 793d 57c7 00bd 324d 47be c3de a83c
000000a0: 013e afbd d0f1 923d fa87 df3d 87f8 77bc
000000b0: 7774 8bbd 95ac 5fbd 951a 3ebe 533b 56bc
000000c0: 3219 153c 0cc4 983d 4083 293e c67d e7bd
000000d0: 5dd1 683d c662 09be 77af fe3d c6a3 163e
000000e0: 5704 b83d dd8b 3bbe cb13 9e3d 05d6 d9bd
000000f0: 71b1 fa3c c298 50bd c45a 46be abac 15be
00000100: 850a 08bc 0a7f 9abc acbb 10be 4808 113e
00000110: 2fab 13be 6ad9 28be f409 96bd 241b 3c3d
00000120: 4ad6 a1bc 6398 133d 785c f33c eb3f 453e
00000130: e4ca dfbd 9ccb 06be 6f84 c0bd 3347 37bd
00000140: 4ecf 31be cd12 d33c 8e77 c8bd a581 9d3d
00000150: 4ec5 94bc 0e06 61bc 5a41 b6bd 6df0 36be
00000160: c311 17bc ae59 19be 8642 96bc 024f c9bb
00000170: 64cb 023d 4866 2c3e 76ab 8fbd 778d 953d
00000180: f016 933d 5533 573d a3ac cdbd 7be6 8a3d
00000190: b197 1dbd b841 7bbd 997c 06bd 7544 fa3d
000001a0: 7a85 1fbe 9d15 76bd 3692 3cbd 07e7 febd
000001b0: fb71 e5bc 55f8 943c 5c00 2f3d 9e96 853d
000001c0: b352 4ebe e84c 91bd 3f07 c8bc 9dcc e3bd
000001d0: b40f 7c3d 46e8 41be 43eb d33c 65d4 0f3e
000001e0: 8d1d debd bdbc e93d 1295 903d a038 203e
000001f0: c21e 40be 502d 9f3d 84d1 8dbd 84dc de3a
00000200: 0643 b33d 35a1 503e e88c b13a 8106 683d
00000210: 534c 1c3e d0df 8c3d 02e8 38be 2017 2fbe
00000220: dc51 fc3d 8ee5 a43d 178b 7dbd f66e 1c3e
00000230: 4c25 d1bd 7461 7b3c e918 b0bd d2ed 3c3e
00000240: 8a6f a33c ec2d 1d3d 7dca 05be 5409 3abd
00000250: 1147 d13d 6d12 6a3d 54ea 823d 123f c3bd
00000260: de05 033c 4890 a2bc e044 7f3c 0156 25be
00000270: aef4 1dbe 9fd4 c6bc 1742 76bd 12d8 9a3d
00000280: d691 4cbd f0fa 9fbc bca0 463d ae86 fe39
00000290: e299 783d c6d7 0cbe bfe0 e0bd d541 6bbd
000002a0: cd92 0a3d 0ad1 18be 67cd 9cbc f422 303e
000002b0: ea7a a53d ef2a 013e 652c 423e 3b46 11be
000002c0: d936 1abe 0e6b f0bd f796 b73d eece 84bc
000002d0: 8860 abbd ad4c 24be 428a 533e c16b c2bc
000002e0: 55e8 43be b0d1 d53d e0d8 fd3d b114 0ebe
000002f0: fe56 d03d eaa7 f13d 08fd 053e 903e 71bd
00000300: 538f e03b ec48 58bd 41b7 05be 9e38 bfbc
00000310: 6c29 053d 31e2 ed3d f73a d0bd f47b 023c
00000320: 3224 11be e359 c23d 681b 2ebe 03ba 483e
00000330: 2cf5 2f3e 4c49 893e 63e2 bc3c c755 223e
00000340: 7733 4dbe 9ae8 343e 0a5e 58bd fcb8 043e
00000350: 02bf c53c 5540 36bd 9f6c 423e 8031 ab3d
00000360: 5f6e 003d 3124 883d c86d c93d 5db5 353e
00000370: 7e29 29bb 0ccf f33d c221 163e cb6b 9c3d
00000380: 5050 4ebe 8465 66bd efbd a8bd ebdb e23d
00000390: 7d21 2cbe 0319 fa3d 8e7b 7d3d b85f 60bd
000003a0: d0b8 9ebd 7273 493d 7b55 21be 2415 c73d
000003b0: 9c22 eabd 2d78 9fbd 6998 a53d b2e1 ea3d
000003c0: 9b49 443e b456 8abe a885 073e 960c c7bd
000003d0: d562 d03c 3707 cfbd 877b e9bc a789 46be
000003e0: ae75 7a3d b11f 1a3e 3766 333a 21e1 28bd
000003f0: 8ccc 573d 1fa7 ccbd 552d 1cbd 17e0 21be

fc2.bias f4 [64]
0.029333817 0.028048478 0.016188288 0.02262026 0.037988912 0.028939962 0.03316474 0.0029071413
0.022039812 -0.010887164 0.004707861 0.013261645 -0.025678389 -0.0035752384 0.0023064322 0.0062118242
0.022220733 -0.0019323403 0.0013748225 0.024275696 0.02894071 0.029030018 0.017122546 -0.0025486914
0.02704844 0.016798273 0.04260579 0.012885634 0.030178694 0.016761366 -0.020698823 0.013250394
0.020749968 0.016911922 0.02984155 0.01669052 -0.0014699622 0.011721711 0.03092893 -0.006670457
-0.009886005 0.032940775 0.029931754 0.020905193 0.032830242 0.031561017 -0.025227385 0.030028224
0.027326422 0.038013447 0.0031387284 0.017402994 0.04757199 0.025550637 -0.010814027 -0.0011625332
0.038726352 0.015261367 -0.0017894955 0.0072209504 0.018850895 0.016420992 0.0033824448 -0.0027328362
00000000: 794d f03c ecc5 e53c 4d9d 843c 204e b93c
00000010: 439a 1b3d 8013 ed3c c0d7 073d bd85 3e3b
00000020: d68c b43c 1360 32bc 6744 9a3b 5f47 593c
00000030: 7c5b d2bc 8c4e 6abb 8327 173b 8f8c cb3b
00000040: 4108 b63c 9546 fdba 6333 b43a d3dd c63c
00000050: 1115 ed3c 5cd0 ed3c 9544 8c3c f207 27bb
00000060: b194 dd3c 889c 893c 6983 2e3d 441e 533c
00000070: 4f39 f73c 224f 893c 9490 a9bc 2e18 593c
00000080: d6fb a93c df8a 8a3c 4476 f43c 8fba 883c
00000090: bfab c0ba 6b0c 403c ab5e fd3c d993 dabb
000000a0: e9f8 21bc e8ec 063d 7033 f53c 5e41 ab3c
000000b0: 0179 063d 2046 013d a9a9 cebc c0fd f53c
000000c0: a9db df3c fdb3 1b3d 20b3 4d3b b990 8e3c
000000d0: d9da 423d 924f d13c 512d 31bc 2460 98ba
000000e0: 869f 1e3d d00a 7a3c 818d eaba b99d ec3b
000000f0: 316d 9a3c 5185 863c 02ac 5d3b 6219 33bb

fc3.weight f4 [64, 64]
-0.29764047 -0.019794429 -0.12260716 0.03963206 0.18208016 0.108796634 0.2097056 -0.022054698
0.104892045 -0.1422092 0.004072015 -0.066078804 -0.10043839 -0.10304981 -0.15935871 -0.21594684
-0.072924994 0.10589617 -0.120807454 0.10423407 0.16470248 0.2614854 -0.05831962 0.07400916
0.15806323 0.1591291 0.116816536 -0.13621281 -0.01965962 -0.15096377 -0.23684072 0.19411278
-0.10512727 0.13413891 0.050948758 -0.048971266 -0.1297566 0.009741834 0.07746069 0.032780178
-0.03383776 0.09566502 0.14640346 -0.10096787 0.056724094 0.23969112 -0.1853464 0.17239563
0.22785889 0.09496403 0.062032837 0.16677551 0.18578061 -0.08052817 0.07808586 -0.089964025
-0.012329054 0.17525868 -0.026183914 0.068700776 0.1227756 0.20323808 -0.18013345 -0.13058609
0.04450277 -0.19276339 -0.24109791 -0.19238849 -0.21074991 0.1915495 0.012192392 0.020721218
0.019809596 0.00011997162 -0.042646784 0.042444315 0.28928146 0.19162749 0.12210446 0.13322519
-0.0011718561 -0.019852206 -0.064858206 -0.23892435 -0.27095315 0.12641647 0.07176312 0.18381704
-0.18224831 -0.10498485 -0.01610867 0.15375014 0.09148936 -0.06431295 -0.09682767 -0.0384363
0.06426591 0.008491868 -0.13357562 0.14145084 0.16128574 -0.088174306 -0.15630673 -0.33052552
0.06976328 -0.2194287 -0.2965685 0.15114245 0.05571016 0.16906476 -0.110337734 0.19490401
-0.14121082 0.0143555235 0.10985466 0.11680516 0.06190123 -0.19896972 0.20280406 -0.08485028
-0.2000362 -0.17036086 0.2675091 -0.01559572 0.099807724 -0.011828594 0.1719687 0.008471972
0.05125814 0.09194086 -0.09346494 0.11961976 -0.059752338 0.0113753015 0.028076094 -0.057121728
0.28563488 -0.10946873 -0.04918226 -0.14714237 -0.025356812 0.121156454 -0.14312689 0.13449492
0.019867836 -0.2410414 -0.080117315 0.027595557 0.13258779 -0.15824309 -0.17168146 -0.121801965
0.1785455 0.16101539 0.013172743 0.07341592 0.046736628 0.0118682515 0.083502896 0.08729513
-0.09490674 0.16120845 0.13045937 0.092333905 0.116359465 0.17985447 0.24114504 0.28695035
0.035391364 0.10024371 -0.16854224 -0.13881354 -0.04480824 0.063357644 0.023431996 -0.110312834
-0.032910414 -0.054904882 -0.037506998 -0.16485223 0.15614234 0.21605861 -0.04716544 0.16778472
0.094153784 0.02762574 -0.091122314 0.001405085 -0.16231327 0.2164182 -0.15786123 -0.0071021453
-0.11071983 -0.08153808 -0.065404125 -0.13991296 0.007385436 0.1718455 -0.17417698 0.18251635
-0.08895197 0.076152295 0.13638002 -0.10819088 0.12361892 -0.19896346 0.18392693 -0.1903383
0.08333473 -0.17486754 -0.047711525 0.27960527 0.13283123 -0.0903723 0.25548467 0.17593619
0.10597786 0.1388619 -0.21381128 -0.23599634 -0.16077197 -0.034059357 -0.2628923 0.1374139
0.14349052 -0.06067367 0.2369335 -0.12338296 -0.25469986 -0.10292133 -0.054257758 0.08767334
-0.3216092 -0.17542806 0.15288115 0.075262345 -0.0028226918 -0.098272964 0.17954585 0.11521114
-0.2613926 0.016242841 0.10178347 -0.005243698 0.20999096 -0.002193631 0.003217406 -0.06318283
0.08786669 -0.02376518 -0.03659404 -0.20172894 -0.00276937 0.16592506 0.106391564 0.17680702
00000000: 5564 98be ed27 a2bc 7619 fbbd 3a55 223d
00000010: 3973 3a3e c5d0 de3d 11bd 563e 0eac b4bc
00000020: a4d1 d63d 4a9f 11be 8a6e 853b 5354 87bd
00000030: a5b2 cdbd c70b d3bd ee2e 23be 2b21 5dbe
00000040: b359 95bd 17e0 d83d e669 f7bd ac78 d53d
00000050: c4a7 283e 6ae1 853e 8ee0 6ebd 1d92 973d
00000060: 54db 213e bdf2 223e 823d ef3d 5f7b 0bbe
00000070: 360d a1bc 3f96 1abe 6086 72be 80c5 463e
00000080: f74c d7bd b65b 093e a5af 503d 1896 48bd
00000090: eade 04be 379c 1f3c b6a3 9e3d 8244 063d
000000a0: 7799 0abd 06ec c33d caea 153e 3ec8 cebd
000000b0: 8657 683d 9771 753e 72cb 3dbe 7b88 303e
000000c0: d753 693e 807c c23d 2516 7e3d 33c7 2a3e
000000d0: 463d 3e3e f4eb a4bd 7beb 9f3d 0f3f b8bd
000000e0: cdff 49bc 0377 333e a67f d6bc feb2 8c3d
000000f0: c671 fb3d a51d 503e e774 38be 5cb8 05be
00000100: 8948 363d c463 45be 5fe2 76be 7d01 45be
00000110: d3ce 57be 8d25 443e 99c2 473c 8bbf a93c
00000120: bc47 a23c 4699 fb38 65ae 2ebd 17da 2d3d
00000130: b31c 943e ff39 443e e711 fa3d 2f6c 083e
00000140: f798 99ba 18a1 a2bc 61d4 84bd 96a8 74be
00000150: 5fba 8abe 5273 013e 8bf8 923d 893a 3c3e
00000160: 4d9f 3abe 4c02 d7bd 54f6 83bc ad70 1d3e
00000170: c65e bb3d 82b6 83bd 964d c6bd 626f 1dbd
00000180: d89d 833d 7a21 0b3c 0cc8 08be 7dd8 103e
00000190: 1728 253e bb94 b4bd df0e 20be a43a a9be
000001a0: 0de0 8e3d ebb1 60be d4d7 97be 16c5 1a3e
000001b0: 5630 643d 501f 2d3e c0f8 e1bd eb94 473e
000001c0: 9299 10be 6e33 6b3c 7bfb e03d 8b37 ef3d
000001d0: 258c 7d3d b8be 4bbe deab 4f3e fcc5 adbd
000001e0: 4ad6 4cbe 1473 2ebe f4f6 883e 3185 7fbc
000001f0: fe67 cc3d b8cc 41bc 9018 303e 07ce 0a3c
00000200: 0ef4 513d 7d4b bc3d 8c6a bfbd 34fb f43d
00000210: debe 74bd 795f 3a3c d6ff e53c 79f8 69bd
00000220: bc3e 923e 2431 e0bd 5673 49bd 7dac 16be
00000230: 17b9 cfbc e020 f83d db8f 12be 09b9 093e
00000240: dfc1 a23c 8fd3 76be 8c14 a4bd 1410 e23c
00000250: 18c5 073e 7a0a 22be 44cd 2fbe 4f73 f9bd
00000260: a2d4 363e 38e1 243e 7dd2 573c 165b 963d
00000270: e86e 3f3d 0e73 423c 9103 ab3d cac7 b23d
00000280: 775e c2bd d413 253e 2497 053e 8f19 bd3d
00000290: df4d ee3d c52b 383e baee 763e 28eb 923e
000002a0: 89f6 103d 934c cd3d 5696 2cbe 2325 0ebe
000002b0: d888 37bd a7c1 813d 75f4 bf3c b2eb e1bd
000002c0: 12cd 06bd f1e3 60bd f0a0 19bd 06cf 28be
000002d0: c7e3 1f3e 783e 5d3e 8c30 41bd c2cf 2b3e
000002e0: b3d3 c03d 604f e23c 569e babd d42a b83a
000002f0: 7335 26be bc9c 5d3e 60a6 21be 1db9 e8bb
00000300: 14c1 e2bd 70fd a6bd 99f2 85bd 5845 0fbe
00000310: 8701 f23b 44f8 2f3e 735b 32be 91e5 3a3e
00000320: 732c b6bd bcf5 9b3d 34a7 0b3e 2e93 ddbd
00000330: eb2b fd3d 14bd 4bbe 5757 3c3e 0be8 42be
00000340: 66ab aa3d 7a10 33be 296d 43bd 6c28 8f3e
00000350: e904 083e 1d15 b9bd e3ce 823e 9e28 343e
00000360: ec0a d93d d031 0e3e 58f1 5abe 06a9 71be
00000370: 68a1 24be d381 0bbd d299 86be 3bb6 0c3e
00000380: 2eef 123e f484 78bd b29e 723e 35b0 fcbd
00000390: 0568 82be 6bc8 d2bd 623d 5ebd 158e b33d
000003a0: f6a9 a4be 6aa3 33be e08c 1c3e 2523 9a3d
000003b0: e9fc 38bb 5643 c9bd deda 373e d1f3 eb3d
000003c0: 40d5 85be b50f 853c da73 d03d 54d3 abbb
000003d0: df07 573e 05c3 0fbb 1edb 523b 0066 81bd
000003e0: 73f3 b33d 32af c2bc a2e3 15bd 0892 4ebe
000003f0: 527e 35bb 42e8 293e d2e3 d93d e60c 353e

fc3.bias f4 [64]
0.029572349 0.005520652 0.0043362067 -0.009004626 0.015415441 0.038096976 0.012495579 0.036053848
0.006732836 0.017390803 0.0110627655 0.025112534 0.010538881 0.021171657 0.028911145 0.03802267
0.014495504 0.031863462 0.029424176 0.0007836347 0.02741444 0.022865904 0.013539148 0.000407122
0.010994916 0.025987415 -0.000369207 -0.014839588 0.014707575 0.024392623 0.01693908 0.016503105
0.023606164 0.021126276 0.018036906 0.019314567 0.013162533 0.01365308 0.03191769 0.011590236
0.032861624 0.0038379754 0.009686193 0.0038443739 0.03007802 0.025840102 0.00010550613 0.0009041887
0.025714327 0.030164376 0.021170296 0.009478687 0.029293427 0.026299037 -0.0019360487 0.0055452124
0.027032146 -0.0026890107 0.01130762 0.015236494 0.017921114 0.024705077 -0.011745156 0.011286416
00000000: b641 f23c 96e6 b43b bd16 8e3b 2488 13bc
00000010: 0c91 7c3c 930b 1c3d 42ba 4c3c 33ad 133d
00000020: 1f9f dc3b 2877 8e3c 9a40 353c cdb8 cd3c
00000030: 45ab 2c3c 2f70 ad3c 11d7 ec3c a9bd 1b3d
00000040: 8d7e 6d3c 4383 023d f80a f13c d66c 4d3a
00000050: 3f94 e03c 4751 bb3c 4dd3 5d3c fd72 d539
00000060: 0524 343c 8fe3 d43c 2092 c1b9 be21 73bc
00000070: 0af8 703c 0ad3 c73c d3c3 8a3c 8531 873c
00000080: b761 c13c 0311 ad3c 22c2 933c 9539 9e3c
00000090: aaa7 573c 2bb1 5f3c 20bc 023d f9e4 3d3c
000000a0: e999 063d 8b86 7b3b d7b2 1e3c e4f1 7b3b
000000b0: 2e66 f63c 9fae d33c 2c43 dd38 1407 6d3a
000000c0: daa6 d23c 481b f73c 546d ad3c 7f4c 1b3c
000000d0: c5f8 ef3c 1471 d73c 04c3 fdba 9db4 b53b
000000e0: 8572 dd3c 1d3a 30bb 9943 393c 7da2 793c
000000f0: 4dcf 923c 4d62 ca3c c16e 40bc a9ea 383c

fc4.weight f4 [32, 64]
0.12860297 0.14284222 -0.20385005 0.17562763 -0.032344718 0.08028117 0.1765007 0.20277673
0.0075062155 0.1684502 0.1418325 -0.31863546 0.20206909 -0.093714364 0.22062916 0.06507933
-0.27315387 -0.1410155 0.0096822 -0.040862437 0.19829153 -0.23767157 0.15160197 0.12751058
-0.16155085 0.034848902 0.14544658 0.08268088 0.13142686 -0.16711597 0.042632412 0.049317177
-0.086385906 -0.12257414 0.07872703 -0.16488686 0.083528 -0.13208927 -0.01916396 -0.09542523
-0.1334139 -0.033156514 -0.27395505 -0.101334766 -0.26089504 -0.08655082 -0.08305791 0.15563399
0.15228519 -0.18700151 -0.10895589 -0.24550205 0.10362788 0.08470222 0.052813414 -0.029439824
-0.1776385 -0.0071947356 0.05232402 0.079230815 0.031135645 -0.3010375 0.1454478 -0.21981053
-0.277041 0.15283643 0.016134711 -0.1542639 0.42582816 0.109850615 0.17531163 -0.06359343
-0.10216224 -0.024719838 -0.016030204 0.1301368 0.118469596 -0.18345423 -0.068264365 -0.027067885
0.05856822 0.113547646 0.089783594 0.00424365 -0.33394524 0.25532848 0.111063324 -0.14803495
-0.18012977 0.052609764 -0.011611217 0.012651299 -0.1042737 0.15242228 0.086980954 0.21105304
0.1239204 -0.20357978 -0.12932733 0.2790131 -0.025536235 -0.1026493 -0.115571365 -0.0027645682
-0.039520025 -0.09775797 0.12905088 0.21372445 -0.30621395 0.53703785 -0.23743969 -0.052315705
-0.0979416 0.01995167 0.22786847 0.20014444 0.0050137807 -0.1777134 0.08852005 -0.08778188
-0.16132869 -0.22848657 -0.15051073 -0.093721524 -0.30218333 0.25357974 -0.1473732 -0.17349762
0.19315846 -0.17193061 0.08051357 0.27643323 0.22557168 0.09464209 -0.14443715 0.14767197
0.03977402 0.13157055 0.34597778 -0.05890938 0.18313831 0.2247685 -0.095288575 0.28244436
-0.13257033 -0.082597606 -0.17496026 -0.007678597 -0.31827268 0.2968978 0.022397302 -0.315895
0.0120104 0.0049431897 -0.23384215 0.069267794 0.13453309 -0.03402452 -0.25673845 -0.16426782
0.079633124 0.1536457 0.19687134 -0.05330091 -0.052595522 0.13648045 -0.23941337 0.089966625
-0.09366011 -0.038113073 0.16054542 -0.030918775 -0.24074493 0.12704307 -0.09013564 -0.030538993
-0.06280207 0.19564675 -0.010506653 0.45071948 -0.010306411 0.018216014 0.15403695 0.14582919
0.16236228 0.033831764 0.032845873 0.22191916 -0.14894138 0.05890742 -0.08342557 0.13436691
0.0393067 -0.105151616 0.09035231 -0.111631356 -0.10546692 -0.040428054 -0.05128256 0.30143514
-0.10114109 0.103737846 -0.06456134 -0.11708718 -0.027333329 -0.1733544 -0.2492562 0.18188165
-0.011186963 -0.15307988 0.06773249 -0.020455787 0.23189013 0.20399241 0.27921098 -0.1849183
0.14898977 0.33378205 0.15441316 0.32816267 -0.04229212 -0.17855355 0.17860684 -0.16112643
-0.042871684 0.17086108 -0.01232617 0.22803932 0.2460157 0.10284773 -0.07482611 0.17566241
0.03612027 -0.18014915 -0.20113507 0.25824434 -0.0668636 -0.16976528 0.1581297 -0.23506527
-0.048392735 -0.23029293 0.0054246895 -0.18334757 0.08263009 0.02009529 -0.2178522 0.043162376
-0.025506424 0.24888885 0.14387801 0.12549312 0.14783086 -0.14749552 0.04350531 0.17287058
00000000: 7fb0 033e 3b45 123e 11be 50be bbd7 333e
00000010: e57b 04bd 746a a43d 99bc 343e b4a4 4f3e
00000020: b3f6 f53b 367e 2c3e 8a3c 113e 3024 a3be
00000030: 33eb 4e3e 51ed bfbd 9cec 613e 5048 853d
00000040: d3da 8bbe 5e66 10be 17a2 1e3c 5f5f 27bd
00000050: ef0c 4b3e 2d60 73be 8c3d 1b3e 2292 023e
00000060: 966d 25be b9bd 0e3d f3ef 143e 9854 a93d
00000070: c394 063e 7320 2bbe 539f 2e3d cf00 4a3d
00000080: 18eb b0bd 2708 fbbd a33b a13d 1ad8 28be
00000090: ba10 ab3d 6942 07be bdfd 9cbc 4e6e c3bd
000000a0: a79d 08be 20cf 07bd d643 8cbe 9a88 cfbd
000000b0: 0994 85be 8e41 b1bd 441a aabd 845e 1f3e
000000c0: a6f0 1b3e 537d 3fbe 4424 dfbd e464 7bbe
000000d0: db3a d43d 5c78 ad3d e152 583d c92b f1bc
000000e0: dee6 35be d1c1 ebbb b651 563d c443 a23d
000000f0: 2e10 ff3c 9621 9abe 45f0 143e 0316 61be
00000100: 51d8 8dbe 2781 1c3e f12c 843c 5bf7 1dbe
00000110: 2606 da3e 5cf9 e03d e484 333e 463d 82bd
00000120: 703a d1bd 4281 cabc c651 83bc 9542 053e
00000130: 30a0 f23d 6ddb 3bbe 30ce 8bbd 78bd ddbc
00000140: 3be5 6f3d ab8b e83d 76e0 b73d 510e 8b3b
00000150: dffa aabe 6aba 823e 2b75 e33d 7996 17be
00000160: f073 38be 567d 573d f93c 3ebc 6547 4f3c
00000170: 738d d5bd 9614 1c3e 1223 b23d 4a1e 583e
00000180: fbc9 fd3d 3877 50be 626e 04be ceda 8e3e
00000190: 5e31 d1bc cc39 d2bd aeb0 ecbd c22d 35bb
000001a0: c0df 21bd 5535 c8bd ea25 043e 95da 5a3e
000001b0: 13c8 9cbe 507b 093f 6423 73be fe48 56bd
000001c0: 9b95 c8bd af71 a33c 5a56 693e aaf2 4c3e
000001d0: a44a a43b 80fa 35be 004a b53d fcc6 b3bd
000001e0: 5933 25be 62f8 69be 7c1f 1abe 12f1 bfbd
000001f0: c6b7 9abe 34d5 813e 00e9 16be 5ca9 31be
00000200: 55cb 453e 940e 30be 4ce4 a43d a888 8d3e
00000210: 43fc 663e b6d3 c13d 55e7 13be 5237 173e
00000220: 15ea 223d 6eba 063e 0024 b13e f64a 71bd
00000230: 9c88 3b3e b729 663e a826 c3bd 8c9c 903e
00000240: 84c0 07be ef28 a9bd c828 33be bd9c fbbb
00000250: a3f4 a2be fd02 983e 8c7a b73c fdbc a1be
00000260: 45c7 443c 7bfa a13b 5174 6fbe 46dc 8d3d
00000270: 0bc3 093e 4c5d 0bbd 3973 83be d335 28be
00000280: b116 a33d 4c55 1d3e a498 493e 0e52 5abd
00000290: 676e 57bd 88c1 0b3e c728 75be 6c40 b83d
000002a0: dfd0 bfbd 741c 1cbd 0566 243e 5f49 fdbc
000002b0: d785 76be 9417 023e 0999 b8bd e92c fabc
000002c0: 5f9e 80bd 9f57 483e 1924 2cbc b4c4 e63e
000002d0: 39dc 28bc c039 953c ddbb 1d3e 3f54 153e
000002e0: 4c42 263e 2d93 0a3d 6589 063d c73e 633e
000002f0: 1784 18be e848 713d 06db aabd 7b97 093e
00000300: 1000 213d bb59 d7bd a20a b93d fb9e e4bd
00000310: 0aff d7bd e397 25bd a90d 52bd b555 9a3e
00000320: 0f23 cfbd 8274 d43d bc38 84bd 67cb efbd
00000330: 25ea dfbc d183 31be 043d 7fbe 2f3f 3a3e
00000340: 8649 37bc f9c0 1cbe 55b7 8a3d e592 a7bc
00000350: 9b74 6d3e 63e3 503e bef4 8e3e 395b 3dbe
00000360: c690 183e 7be5 aa3e 7c1e 1e3e f004 a83e
00000370: 813a 2dbd bed6 36be b6e4 363e 54fe 24be
00000380: 389a 2fbd 35f6 2e3e b4f3 49bc 2483 693e
00000390: 8aeb 7b3e d5a1 d23d 6e3e 99bd d9e0 333e
000003a0: d9f2 133d 0579 38be 5af6 4dbe 9a38 843e
000003b0: c8ef 88bd f3d6 2dbe c1ec 213e f3b4 70be
000003c0: 7637 46bd e9d1 6bbe 98c1 b13b 77bf 3bbe
000003d0: f739 a93d e19e a43c a614 5fbe 08cb 303d
000003e0: d9f2 d0bc b8dc 7e3e c254 133e 4581 003e
000003f0: f960 173e 1109 17be a032 323d fc04 313e

fc4.bias f4 [32]
-0.04634102 0.028255466 0.012034504 0.005642902 0.023414835 0.0012875857 0.024441622 0.008297581
0.0200186 0.014882955 0.044064023 0.0018404832 0.007902444 0.013085596 0.014636123 0.03158483
0.025918925 0.0009672283 0.008500019 0.0011234073 0.061892554 0.006688407 0.03004194 0.004739058
-0.0034820712 0.017992562 0.0013139762 0.03767647 0.016363291 0.0097551495 0.035512373 0.04549944
00000000: 15d0 3dbd 0278 e73c 5e2c 453c 18e8 b83b
00000010: 78d0 bf3c 35c4 a83a cc39 c83c 94f2 073c
00000020: 0cfe a33c a3d7 733c 7a7c 343d 5e3c f13a
00000030: 4179 013c f864 563c 59cc 6f3c 185f 013d
00000040: ed53 d43c 988d 7d3a aa43 0b3c 4b3f 933a
00000050: 0c83 7d3d 6d2a db3b 841a f63c 1a4a 9b3b
00000060: 7633 64bb 2365 933c ba39 ac3a a452 1a3d
00000070: 4f0c 863c 10d4 1f3c 6c75 113d 9f5d 3a3d

fc5.weight f4 [2, 32]
0.044707566 -0.36554825 -0.14828773 -0.04279668 -0.77735156 0.4433222 -0.7445321 -0.140959
-0.17907956 -0.6216066 0.029166052 0.26989257 0.18363295 0.19228192 0.34175625 0.018568126
-0.27989718 0.5968681 0.38857996 -0.32117578 -0.33263695 -0.6300639 0.49500424 0.43034515
-0.11578618 0.5624694 0.30790874 -0.5949883 0.5796956 -0.5854038 -0.062967815 -0.30285215
-0.27467743 -0.00043747987 0.25262117 -0.3100805 0.81120175 -0.008351063 0.5296679 -0.40694204
0.5790173 -0.124128774 -0.29148325 -0.21264635 -0.2020544 0.03948077 0.057000075 0.2612738
0.5285816 -0.050160803 -0.34091562 0.5552987 0.4077152 0.67684394 -0.09057369 -0.7102841
-0.3900404 -0.017396268 0.095076665 0.6529753 -0.652978 0.19471063 0.69455594 0.24559629
00000000: 481f 373d 2429 bbbe bdd8 17be 924b 2fbd
00000010: 8300 47bf 21fb e23e a899 3ebf 8e57 10be
00000020: a260 37be 9c21 1fbf a5ed ee3c 5c2f 8a3e
00000030: 470a 3c3e 8de5 443e adfa ae3e 2f1c 983c
00000040: af4e 8fbe 59cc 183f f4f3 c63e 2771 a4be
00000050: 644f aabe de4b 21bf 3271 fd3e 3356 dc3e
00000060: 4e21 edbd fffd 0f3f 37a6 9d3e 2751 18bf
00000070: ee66 143f 06dd 15bf 45f5 80bd 700f 9bbe
00000080: 85a2 8cbe 8e5d e5b9 9057 813e dfc2 9ebe
00000090: ebaa 4f3f e6d2 08bc 5198 073f b55a d0be
000000a0: 7a3a 143f 3a37 febd 4b3d 95be f7bf 59be
000000b0: 59e7 4ebe 96b6 213d e978 693d aec5 853e
000000c0: 2051 073f 6a75 4dbd 7e8c aebe 0e28 0e3f
000000d0: 0cc0 d03e a545 2d3f b37e b9bd 2ed5 35bf
000000e0: 60b3 c7be 9e82 8ebc 8eb7 c23d 6429 273f
000000f0: 9129 27bf 3962 473e 6bce 313f 987d 7b3e

fc5.bias f4 [2]
-0.006791472 0.02679162
00000000: ff8a debb 197a db3c
